…
D=false', '-DSLSTM_FORWARD_CLIPVAL=0.0', '-U__CUDA_NO_HALF_OPERATORS__', '-U__CUDA_NO_HALF_CONVERSIONS__', '-U__CUDA_NO_BFLOAT16_OPERATORS__', '-U
__CUDA_NO_BFLOAT16_CONVERSIONS__', '-U__CUDA_NO_BFLOAT162_OPERATORS__', '-U__CUDA_NO_BFLOAT162_CONVERSIONS__']}
Using /home/e20037/.cache/torch_extensions/py311_cu124 as PyTorch extensions root...
No modifications detected for re-loaded extension module slstm_HS512BS8NH4NS4DBfDRbDWbDGbDSbDAfNG4SA1GRCV0GRC0d0FCV0FC0d0, skipping build step...
Loading extension module slstm_HS512BS8NH4NS4DBfDRbDWbDGbDSbDAfNG4SA1GRCV0GRC0d0FCV0FC0d0...
Training dtype: torch.float32
xLSTMLMModel(
  (xlstm_block_stack): xLSTMBlockStack(
    (blocks): ModuleList(
      (0-2): 3 x mLSTMBlock(
        (xlstm_norm): LayerNorm()
        (xlstm): mLSTMLayer(
          (proj_up): Linear(in_features=512, out_features=2048, bias=False)
          (q_proj): LinearHeadwiseExpand(in_features=1024, num_heads=256, expand_factor_up=1, bias=False, trainable_weight=True, trainable_bias=Tr
ue, )
          (k_proj): LinearHeadwiseExpand(in_features=1024, num_heads=256, expand_factor_up=1, bias=False, trainable_weight=True, trainable_bias=Tr
ue, )
          (v_proj): LinearHeadwiseExpand(in_features=1024, num_heads=256, expand_factor_up=1, bias=False, trainable_weight=True, trainable_bias=Tr
ue, )
          (conv1d): CausalConv1d(
            (conv): Conv1d(1024, 1024, kernel_size=(4,), stride=(1,), padding=(3,), groups=1024)
          )
          (conv_act_fn): SiLU()
          (mlstm_cell): mLSTMCell(
            (igate): Linear(in_features=3072, out_features=4, bias=True)
            (fgate): Linear(in_features=3072, out_features=4, bias=True)
            (outnorm): MultiHeadLayerNorm()
          )
          (ogate_act_fn): SiLU()
          (proj_down): Linear(in_features=1024, out_features=512, bias=False)
          (dropout): Dropout(p=0.0, inplace=False)
        )
      )
      (3): sLSTMBlock(
        (xlstm_norm): LayerNorm()
        (xlstm): sLSTMLayer(
          (conv1d): CausalConv1d(
            (conv): Conv1d(512, 512, kernel_size=(4,), stride=(1,), padding=(3,), groups=512)
          )
          (conv_act_fn): SiLU()
          (fgate): LinearHeadwiseExpand(in_features=512, num_heads=4, expand_factor_up=1, bias=False, trainable_weight=True, trainable_bias=True,
)
          (igate): LinearHeadwiseExpand(in_features=512, num_heads=4, expand_factor_up=1, bias=False, trainable_weight=True, trainable_bias=True,
)
          (zgate): LinearHeadwiseExpand(in_features=512, num_heads=4, expand_factor_up=1, bias=False, trainable_weight=True, trainable_bias=True,
)
          (ogate): LinearHeadwiseExpand(in_features=512, num_heads=4, expand_factor_up=1, bias=False, trainable_weight=True, trainable_bias=True,
)
          (slstm_cell): sLSTMCell_cuda(function=slstm, hidden_size=512, num_heads=4)
          (group_norm): MultiHeadLayerNorm()
          (dropout): Dropout(p=0.0, inplace=False)
        )
        (ffn_norm): LayerNorm()
        (ffn): GatedFeedForward(
          (proj_up): Linear(in_features=512, out_features=1408, bias=False)
          (proj_down): Linear(in_features=704, out_features=512, bias=False)
          (dropout): Dropout(p=0.0, inplace=False)
        )
      )
      (4-5): 2 x mLSTMBlock(
        (xlstm_norm): LayerNorm()
        (xlstm): mLSTMLayer(
          (proj_up): Linear(in_features=512, out_features=2048, bias=False)
          (q_proj): LinearHeadwiseExpand(in_features=1024, num_heads=256, expand_factor_up=1, bias=False, trainable_weight=True, trainable_bias=Tr
ue, )
          (k_proj): LinearHeadwiseExpand(in_features=1024, num_heads=256, expand_factor_up=1, bias=False, trainable_weight=True, trainable_bias=Tr
ue, )
          (v_proj): LinearHeadwiseExpand(in_features=1024, num_heads=256, expand_factor_up=1, bias=False, trainable_weight=True, trainable_bias=Tr
ue, )
          (conv1d): CausalConv1d(
            (conv): Conv1d(1024, 1024, kernel_size=(4,), stride=(1,), padding=(3,), groups=1024)
          )
          (conv_act_fn): SiLU()
          (mlstm_cell): mLSTMCell(
            (igate): Linear(in_features=3072, out_features=4, bias=True)
            (fgate): Linear(in_features=3072, out_features=4, bias=True)
            (outnorm): MultiHeadLayerNorm()
          )
          (ogate_act_fn): SiLU()
          (proj_down): Linear(in_features=1024, out_features=512, bias=False)
          (dropout): Dropout(p=0.0, inplace=False)
        )
      )
      (6): sLSTMBlock(
        (xlstm_norm): LayerNorm()
        (xlstm): sLSTMLayer(
          (conv1d): CausalConv1d(
            (conv): Conv1d(512, 512, kernel_size=(4,), stride=(1,), padding=(3,), groups=512)
          )
          (conv_act_fn): SiLU()
          (fgate): LinearHeadwiseExpand(in_features=512, num_heads=4, expand_factor_up=1, bias=False, trainable_weight=True, trainable_bias=True,
)
          (igate): LinearHeadwiseExpand(in_features=512, num_heads=4, expand_factor_up=1, bias=False, trainable_weight=True, trainable_bias=True,
…
          (igate): LinearHeadwiseExpand(in_features=512, num_heads=4, expand_factor_up=1, bias=False, trainable_weight=True, trainable_bias=True,
)
          (zgate): LinearHeadwiseExpand(in_features=512, num_heads=4, expand_factor_up=1, bias=False, trainable_weight=True, trainable_bias=True,
)
          (ogate): LinearHeadwiseExpand(in_features=512, num_heads=4, expand_factor_up=1, bias=False, trainable_weight=True, trainable_bias=True,
)
          (slstm_cell): sLSTMCell_cuda(function=slstm, hidden_size=512, num_heads=4)
          (group_norm): MultiHeadLayerNorm()
          (dropout): Dropout(p=0.0, inplace=False)
        )
        (ffn_norm): LayerNorm()
        (ffn): GatedFeedForward(
          (proj_up): Linear(in_features=512, out_features=1408, bias=False)
          (proj_down): Linear(in_features=704, out_features=512, bias=False)
          (dropout): Dropout(p=0.0, inplace=False)
        )
      )
      (10-11): 2 x mLSTMBlock(
        (xlstm_norm): LayerNorm()
        (xlstm): mLSTMLayer(
          (proj_up): Linear(in_features=512, out_features=2048, bias=False)
          (q_proj): LinearHeadwiseExpand(in_features=1024, num_heads=256, expand_factor_up=1, bias=False, trainable_weight=True, trainable_bias=Tr
ue, )
          (k_proj): LinearHeadwiseExpand(in_features=1024, num_heads=256, expand_factor_up=1, bias=False, trainable_weight=True, trainable_bias=Tr
ue, )
          (v_proj): LinearHeadwiseExpand(in_features=1024, num_heads=256, expand_factor_up=1, bias=False, trainable_weight=True, trainable_bias=Tr
ue, )
          (conv1d): CausalConv1d(
            (conv): Conv1d(1024, 1024, kernel_size=(4,), stride=(1,), padding=(3,), groups=1024)
          )
          (conv_act_fn): SiLU()
          (mlstm_cell): mLSTMCell(
            (igate): Linear(in_features=3072, out_features=4, bias=True)
            (fgate): Linear(in_features=3072, out_features=4, bias=True)
            (outnorm): MultiHeadLayerNorm()
          )
          (ogate_act_fn): SiLU()
          (proj_down): Linear(in_features=1024, out_features=512, bias=False)
          (dropout): Dropout(p=0.0, inplace=False)
        )
      )
    )
    (post_blocks_norm): LayerNorm()
  )
  (token_embedding): Embedding(675, 512)
  (emb_dropout): Identity()
  (lm_head): Linear(in_features=512, out_features=675, bias=False)
)
Number of parameters: 20_083_784 (20.1M)
Preparing DataLoader...
Estimated number of steps: 158_746
Using /home/e20037/.cache/torch_extensions/py311_cu124 as PyTorch extensions root...
No modifications detected for re-loaded extension module slstm_HS512BS8NH4NS4DBfDRbDWbDGbDSbDAfNG4SA1GRCV0GRC0d0FCV0FC0d0, skipping build step...
Loading extension module slstm_HS512BS8NH4NS4DBfDRbDWbDGbDSbDAfNG4SA1GRCV0GRC0d0FCV0FC0d0...
…
